extrinsic_chessboard_calibration_params.npz (npz, 2366 bytes, 8 tensors)

Kl f8 [3, 3]
503.0760846177986 0.0 310.3417658066253 0.0 504.333273959387 244.48957642896966 0.0 0.0
1.0
00000000: c712 81a4 3771 7f40 0000 0000 0000 0000
00000010: 8c25 6cdf 7765 7340 0000 0000 0000 0000
00000020: cf42 1317 5585 7f40 26ea 2f9c aa8f 6e40
00000030: 0000 0000 0000 0000 0000 0000 0000 0000
00000040: 0000 0000 0000 f03f

Dl f8 [1, 5]
-0.429440346021792 0.3120516082754096 0.0011624853258377535 0.0021739966992594616 -0.17350376363384307
00000000: fdc6 6f5c f37b dbbf eb40 0d4f a7f8 d33f
00000010: 4e2a 381d d10b 533f 33a3 3297 33cf 613f
00000020: 9227 450f 5f35 c6bf

Kr f8 [3, 3]
502.71906568727854 0.0 323.49687377061775 0.0 501.9853889074529 234.07654666084588 0.0 0.0
1.0
00000000: 98a8 054b 816b 7f40 0000 0000 0000 0000
00000010: b230 e931 f337 7440 0000 0000 0000 0000
00000020: 9fb5 2827 c45f 7f40 6f9e fb11 7342 6d40
00000030: 0000 0000 0000 0000 0000 0000 0000 0000
00000040: 0000 0000 0000 f03f

Dr f8 [1, 5]
-0.41328541069749547 0.23913069561010028 0.0008942169100224244 0.0009998022377029595 -0.08646622514926393
00000000: dc04 b7a6 4473 dabf f9bb 8eaa d59b ce3f
00000010: 186b 2931 3c4d 4d3f f22c 757a 7961 503f
00000020: 6783 3989 a622 b6bf

R f8 [3, 3]
0.9941293198339362 -0.005398233002839347 -0.10806365960378478 0.005452102885934241 0.9999851165609952 0.00020305322965356886 0.10806095511625277 -0.000791035359475992
0.9941439554925752
00000000: afce 954a e8cf ef3f 660e 4123 751c 76bf
00000010: 9463 e25b 0faa bbbf 0ea7 6eb9 f154 763f
00000020: 18b8 83c9 e0ff ef3f 0886 1ff6 559d 2a3f
00000030: 7ee6 32fc e1a9 bb3f b6e7 dc7f afeb 49bf
00000040: 016a 0bfc 06d0 ef3f

T f8 [3, 1]
-1.207089094092616 0.11443284741283681 -0.20078147053570639
00000000: dfc6 67a7 3c50 f3bf 4bee 3999 784b bd3f
00000010: 9cfc cb0c 35b3 c9bf

E f8 [3, 3]
0.013460404023053407 0.2006879617883473 0.11380349289132274 -0.06916354632085889 0.0001290150051393642 1.2217175071199005 -0.12034222269866617 -1.206453393282198
0.012120928931277536
00000000: d347 8fd8 2091 8b3f 0a7a 4aa4 24b0 c93f
00000010: 6088 23c8 3922 bd3f 2202 86c1 b3b4 b1bf
00000020: fcda 9d74 06e9 203f 6b7d 20a8 278c f33f
00000030: a397 d176 bfce bebf 69b9 c412 a24d f3bf
00000040: e316 db8a dbd2 883f

F f8 [3, 3]
6.968001900912805e-07 1.036304865061958e-05 0.00021383183131876068 -3.585598833088014e-06 6.671764659046074e-09 0.032974295005911966 -0.002517904699597262 -0.03467255969471758
1.0
00000000: 094c 8ed2 7761 a73e 90b4 b28f 9ebb e53e
00000010: e2e3 d871 0107 2c3f 1ac3 04ce 0314 cebe
00000020: 6871 51cd aea7 3c3e be6e 51bd 01e2 a03f
00000030: 4dd9 daca 6da0 64bf ec32 ea0b 9ac0 a1bf
00000040: 0000 0000 0000 f03f
