intrinsic_calibration_params_right.npz (npz, 9640 bytes, 4 tensors)

mtx f8 [3, 3]
000000 f4 f5 8e c3 e6 18 80 40 00 00 00 00 00 00 00 00
       515.112677685624 0.0
000010 c4 0f 03 ac d5 38 76 40 00 00 00 00 00 00 00 00
       355.5521659965127 0.0
000020 54 3e fa ec ff 2b 80 40 f7 96 3c bf 9a f1 6d 40
       517.4999637174865 239.55014001687934
000030 00 00 00 00 00 00 00 00 00 00 00 00 00 00 00 00
       0.0 0.0
000040 00 00 00 00 00 00 f0 3f
       1.0

dist f8 [1, 5]
000000 ae 40 13 da aa 04 dc bf a6 e0 7c ea ab 60 cf 3f
       -0.4377848748818093 0.24513768148040532
000010 5a 42 0b 5c 53 e2 76 bf d4 d1 b0 f5 e2 3d 91 bf
       -0.0055869346840187965 -0.01683764099671399
000020 24 29 78 28 51 56 b8 bf
       -0.09506709325811308

rvecs f8 [178, 3, 1]
000000 bf 8d 35 36 a5 a5 c4 bf 1d 5a 97 2e f8 50 d3 bf
       -0.161305095166524 -0.301816983699071
000010 38 f9 e3 8c 17 c4 8b 3f 3c c0 48 99 dd 80 c4 bf
       0.01355760954583883 -0.16018266663150083
000020 55 91 8f 30 07 63 d3 bf bf 86 f5 87 cf 6e 8b 3f
       -0.30291919462458355 0.013394948326723164
000030 b2 1c 8d 90 47 77 c4 bf f3 8e 37 1e 7b 88 d3 bf
       -0.15989012296833988 -0.305205134877027
000040 63 d2 31 71 74 6f 8a 3f 82 f3 c9 a5 b9 b6 c4 bf
       0.012907895759988358 -0.1618263301387764
000050 12 4d a1 0d ba 76 d3 bf f9 fc 59 e0 8d 08 8b 3f
       -0.3041215069872162 0.01319990960041516
000060 4f 15 37 a1 85 9f c4 bf fc d1 06 e7 70 5a d3 bf
       -0.16111822482904833 -0.30239508210368604
000070 31 b4 01 d8 58 cd 8b 3f b8 17 00 ca 0d 98 c4 bf
       0.013575262157440178 -0.16089031565951273
000080 b5 03 2d c2 76 6d d3 bf ba 91 7c bb 33 35 8b 3f
       -0.3035561462639252 0.013285068663727684
000090 b4 82 81 a8 e3 bb c4 bf 80 ca 75 89 1b 5b d3 bf
       -0.16198392608477763 -0.3024357645400997
0000a0 76 15 73 c2 4e 84 8b 3f a1 fd 35 b7 1b 83 c4 bf
       0.013435950574044436 -0.16025110669941703
0000b0 c5 ea 0c 0c c5 67 d3 bf 96 ea 3f b0 d2 79 8b 3f
       -0.3032086007766959 0.013415952686036275
0000c0 1c 62 7f cd e3 ad c4 bf 61 48 d5 11 d7 77 d3 bf
       -0.1615566972166257 -0.30418946019665866
0000d0 ed e8 dc 58 5e 59 8b 3f 5c 12 92 64 2a aa c4 bf
       0.013354050719148048 -0.16144304190324277
0000e0 6a ee 26 31 35 72 d3 bf 2c ef 0c 70 61 58 8b 3f
       -0.3038456897736298 0.013352166397104868
0000f0 bc 8a 13 4a b7 9a c4 bf 29 54 31 5f 74 5f d3 bf
       -0.16097155682571962 -0.3027010850540273
000100 ad e3 b0 67 da 89 8b 3f 82 8c 39 96 40 90 c4 bf
       0.01344652775706997 -0.1606522305984051
000110 9c f3 f2 2c 97 77 d3 bf 79 70 fc 34 3a 69 8b 3f
       -0.3041742266612404 0.013384299032218149
000120 30 0c b7 7c f3 a5 c4 bf bf 43 67 47 32 66 d3 bf
       -0.16131442632294712 -0.3031125733660324
000130 72 48 e6 7f 97 69 8b 3f d5 cf 56 23 af 8c c4 bf
       0.01338499411648206 -0.16054333901922627
000140 c6 23 44 fb 7a 73 d3 bf 5c ed 6b fd fc 01 8b 3f
       -0.30392336404525755 0.013187386020482243
000150 52 81 d3 d7 84 9f c4 bf d3 d8 ab b0 03 7e d3 bf
       -0.16111813104999811 -0.30456630948118607
000160 81 23 f7 3d 60 33 8b 3f 26 8a 96 be bf ac c4 bf
       0.013281585589440816 -0.1615218811612788
000170 60 e3 bc 40 24 70 d3 bf b9 97 04 33 12 79 8b 3f
       -0.30371958086066364 0.013414518529838536
000180 56 b2 f4 b0 57 ae c4 bf f7 52 f1 25 73 60 d3 bf
       -0.16157051220342805 -0.30276182847346383
000190 91 14 53 91 df 0c 8b 3f 32 3e 66 c0 7d 94 c4 bf
       0.013208147642567421 -0.16078159231663985
0001a0 64 2e 5b e0 71 74 d3 bf 7a 2a ae 96 34 4c 8b 3f
       -0.3039822283724105 0.013328944061659732
0001b0 fe 29 95 51 9c 96 c4 bf 10 9a 3d 2c 45 68 d3 bf
       -0.160846271357812 -0.30323914833425736
0001c0 f1 9b 06 83 ad a1 8b 3f 0c 87 8b df f7 95 c4 bf
       0.013491969643679243 -0.1608266679314102
0001d0 78 67 03 9e 7f 6b d3 bf a4 11 47 3e 16 16 8b 3f
       -0.303436188039647 0.013225721145212095
0001e0 f4 b9 9b ea f3 aa c4 bf 0f 36 2b 87 d8 73 d3 bf
       -0.1614670653866167 -0.3039456672675848
0001f0 2b 6f 24 5d 57 29 8b 3f e4 c4 89 12 11 c2 c4 bf
       0.013262445955255572 -0.16217244534667608
000200 99 60 59 a6 64 5f d3 bf 89 25 71 b4 1e 59 8b 3f
       -0.3026973366263604 0.013353576547290984
000210 d8 c4 7f 55 c4 75 c5 bf 8d 4e 06 6a 8a 69 d3 bf
       -0.1676564614749967 -0.30331669191330307
000220 d5 bb da 57 b9 34 87 3f 8b ad e8 43 1b 74 c4 bf
       0.011331031793217075 -0.15979328933586276
000230 bf d6 95 fc 19 60 d0 bf 34 e5 87 3d a5 7c 78 3f
       -0.2558655707028769 0.005978246183525205
000240 1c 01 41 0e e8 53 c5 bf b6 57 1d d0 26 39 d0 bf
       -0.166623122177051 -0.2534882576340992
000250 4d 47 c5 34 71 02 88 3f 3c c3 3f 06 88 52 c4 bf
       0.011723408148700232 -0.1587686567795802
000260 23 8b f3 6f d9 ec cf bf 84 35 6e 51 8f e7 86 3f
       -0.24941556898473846 0.011183852837144632
000270 96 60 cf 3a 85 9a c5 bf 38 df 2b 03 9c 31 d0 bf
       -0.168778089252332 -0.2530279189081628
000280 6c ec 91 fb 9d 0d 81 3f 88 56 e9 d2 25 a7 c3 bf
       0.008326753845031308 -0.15353844450389809
000290 1a 6d fb 0a 02 58 d0 bf bd d2 ef 5c 29 93 86 3f
       -0.25537158081506706 0.011022875927645054
0002a0 43 ce 6b 32 50 c4 c5 bf dc 3e 5c 74 bd ef cf bf
       -0.17005350553482587 -0.2495037859121031
0002b0 bf cf 6b a9 8c be 83 3f 2c a0 53 29 7f ce c5 bf
       0.009640788002322041 -0.17036427991774994
0002c0 74 7e 24 fe f0 92 d0 bf 47 17 ba b7 6b f1 81 3f
       -0.25896858996018257 0.008761254829788746
0002d0 39 94 f4 e1 79 41 c6 bf 45 8f 3e 99 77 4b d0 bf
       -0.1738731721208369 -0.25460615124960767
0002e0 40 e0 12 ff 9d a3 8b 3f f7 6c b3 4b 70 17 c3 bf
       0.013495668741924871 -0.14915279098827458
0002f0 2c 62 b3 72 cd 16 cf bf 9f 3f 7e 4d 3a e7 98 3f
       -0.24288337803479132 0.0243195638464041
000300 81 e8 84 1c 6d 92 c2 bf b2 9a fe e1 8a 8b cf bf
       -0.14509357349908572 -0.24644599947824514
000310 97 11 33 d4 22 2a 93 3f 0c d8 9c 30 6b ae c4 bf
       0.018715423776272635 -0.16157283662477118
000320 a8 d6 95 8c 78 51 cf bf 9f af b9 84 e2 af 87 3f
       -0.24467379440800596 0.011565942454772769
000330 65 a4 ba 85 19 33 c6 bf aa fb 2e 23 ef 81 cd bf
       -0.1734344389890651 -0.23052777498193439
000340 83 61 65 52 d4 0f 75 3f 83 c9 75 08 bc 2f c2 bf
       0.005142049200309254 -0.14208174145785443
000350 81 53 70 14 59 c5 ce bf eb c6 38 06 7a 22 7d 3f
       -0.2403975820349409 0.007112957627713116
000360 40 02 02 44 cf 47 c3 bf 2b 93 91 7d 20 ca d0 bf
       -0.15062895603843351 -0.2623368479019514
000370 1a 9b 3d 6a 21 80 72 3f e1 05 6d 05 de 54 c4 bf
       0.0045167260430847515 -0.15883994355139833
000380 43 93 f5 b4 fe 0b ce bf a7 08 a5 9a 2e 3c 86 3f
       -0.23474105678465138 0.01085697564542827
000390 53 cc 19 5c d1 63 c7 bf 08 40 6a 92 c0 b6 ce bf
       -0.1827336978636561 -0.23995215558215954
0003a0 0d 68 cb 19 ca 19 91 3f b6 7b 2b 92 d4 70 c7 bf
       0.016699941467642577 -0.18313080918502828
0003b0 3c fc c5 01 88 52 cf bf f5 a0 5e 6f 4c fd 85 3f
       -0.24470615469542334 0.010737034939510151
0003c0 5b 6a 19 5f e3 ba c6 bf 04 02 7e 09 a0 54 d1 bf
       -0.17757837432403076 -0.2707901089379734
0003d0 03 d6 b9 28 ab dc 67 3f f3 74 84 0c 72 39 c7 bf
       0.002912840170945287 -0.1814405976410068
0003e0 a9 82 f6 e1 c1 d8 d0 bf cb 90 b4 8d 2b e0 35 3f
       -0.26322981898014547 0.00033379615134011543
0003f0 3b c2 7b e6 81 df c7 bf 86 04 3d 4b ed 41 cf bf
       -0.18650840524743892 -0.24419943021533558
000400 7e 1f 23 48 1b 80 42 bf a4 a4 bf 41 7e 89 c7 bf
       -0.0005645878993840584 -0.1838834591901889
000410 4b 6b 24 fc bf 73 ce bf 83 60 39 59 c3 40 64 bf
       -0.23790740787156958 -0.00247228769312008
000420 31 8d e5 a2 0b be c5 bf 26 1e 32 80 0a d2 cf bf
       -0.1698622270006154 -0.24859744319495397
000430 d0 3e 22 1d 7c 79 70 bf cb ed 45 73 20 0a c5 bf
       -0.004022106952234331 -0.16437154415676355
000440 0b de dc 40 11 8c cf bf 27 53 5e 58 d8 68 61 bf
       -0.24646201769950013 -0.0021251893512705014
000450 ec 09 a5 a8 3c a2 c5 bf 06 ca fa fc 10 cf cf bf
       -0.16901357874492307 -0.24850666382333503
000460 0a 39 5f 78 b1 75 5d bf d5 0e ab 45 fd b7 c3 bf
       -0.001798079787011244 -0.15405240918891275
000470 d9 ae 5a c5 b8 f1 ce bf 5a fc 62 62 fe ca 6e 3f
       -0.24175176273762736 0.0037589043086821263
000480 55 b1 0b ee e0 23 c3 bf fe 51 d2 de 29 3a ce bf
       -0.14953242896388966 -0.23615001087149773
000490 ff 54 b6 be fc 00 72 3f 87 02 bc f6 e4 3d c2 bf
       0.004395472798383481 -0.14251386687830722
0004a0 ca bd 8a fb cb 8a cf bf 72 07 de bc 2f 14 39 3f
       -0.246423242400381 0.00038267293427206924
0004b0 fb 24 d7 ea ff 39 c3 bf f6 3f c4 70 c1 98 d0 bf
       -0.15020750967804716 -0.25932346355784774
0004c0 34 d8 b6 94 43 a7 6a bf 9a 92 10 da 75 02 c3 bf
       -0.0032535858096834017 -0.14851258418743357
0004d0 cf b5 a7 52 55 0a d1 bf 21 c8 60 bb 78 f0 56 bf
       -0.26625569412030087 -0.0014001063368707172
0004e0 b4 95 78 bd a9 c4 c2 bf c4 4a 05 c9 e0 80 d0 bf
       -0.14662667991175982 -0.2578660929768086
0004f0 bd a4 01 64 c8 2d 62 3f 42 f6 56 90 4e c9 c2 bf
       0.0022190965537914596 -0.1467683987411182
000500 0e cf 0a 50 cc ef cf bf 81 ad bd db c0 a2 72 3f
       -0.24950555713950745 0.004549744942646484
000510 4a 14 e5 bd ed 2e c3 bf 94 4b 0a f5 04 05 d0 bf
       -0.14986964962204957 -0.250306357667051
000520 87 3b a9 01 b0 c3 53 3f 6c 0c 37 7c 29 c3 c0 bf
       0.0012063235104908547 -0.1309558731573789
000530 03 95 40 4d 30 ab d0 bf 2d f4 f3 a1 0a 05 60 3f
       -0.26044852775733335 0.001955528990605268
000540 78 3c ff 02 c2 a1 c0 bf 09 5f 1a b6 ea 98 cc bf
       -0.12993645807589238 -0.22341665164707816
000550 ab 26 46 0b 6b 68 85 3f ed 23 ac 8f 89 20 c3 bf
       0.010453068048053757 -0.149430461075354
000560 58 e6 61 32 bf c3 cc bf 5d af dd d7 ee de 85 3f
       -0.22472372016982223 0.01067911716719266
000570 21 f1 72 a2 63 9b c4 bf 04 fa e7 e5 90 f9 cc bf
       -0.1609921019752472 -0.22636615014921813
000580 a2 31 20 6b ba 45 7a 3f 5a 5d ae e9 89 c3 c5 bf
       0.006414154240712485 -0.17002986822329086
000590 da 09 d5 d7 97 c2 c4 bf 90 99 86 cb 27 b3 94 3f
       -0.16218851126366368 0.020214673802593064
0005a0 ff 1a 91 e4 04 67 c5 bf 55 9b da 86 0c 7b c3 bf
       -0.167206393818752 -0.1521926554171055
0005b0 31 33 ee 10 28 dc 98 3f b0 ff d5 f4 a5 d7 c4 bf
       0.02427733043036823 -0.1628310628402665
0005c0 50 59 ee 0d 5a b2 c2 bf c7 9d 33 da 5a 11 9a 3f
       -0.1460678642294604 0.025456828659029342
0005d0 dc 73 f9 d8 c6 0b c5 bf 69 50 81 db 50 17 c1 bf
       -0.1644218978352957 -0.13352404325508196
0005e0 63 4d 0b 58 7b 6b 96 3f c5 b5 74 67 2f ed c4 bf
       0.021894385575092722 -0.1634883170276408
0005f0 8b 05 92 db ed 49 bf bf 72 5d d7 88 f8 eb 90 3f
       -0.12222181902509115 0.01652515731060817
000600 f0 b8 51 5a 53 30 c4 bf e4 70 8f c0 d6 0f bd bf
       -0.15772478017920077 -0.11352293206386183
000610 93 27 9c a4 f7 a5 8d 3f 9c 5a a0 40 04 e9 c1 bf
       0.014476713858602419 -0.1399236026342877
000620 d5 6e af 2c 3f de b8 bf b7 38 d1 a1 fe fd 94 3f
       -0.0971412166685995 0.02050016272215124
000630 35 08 83 56 93 17 c0 bf 80 1e 3b 00 9c 7d b6 bf
       -0.1257194683476556 -0.087854147011166
000640 1f 5c cd 93 de e2 96 3f 3e 0c e2 34 91 23 ba bf
       0.022349813243035862 -0.1021052126034627
000650 81 ae 9a da ad 7a b8 bf ea aa 50 27 a7 b4 97 3f
       -0.0956219347669336 0.023150073790172344
000660 72 63 29 f3 d0 85 b6 bf 2e b4 47 85 d4 1f ba bf
       -0.08797937332691477 -0.10204818967731974
000670 c4 4d e2 9c cb 50 9a 3f a5 1b 73 1d 3a 40 b3 bf
       0.025698834848822974 -0.07519877642617574
000680 fb e5 86 df e1 6c bb bf dc aa 86 16 c6 67 a0 3f
       -0.10713016230774734 0.032041731118928246
000690 f0 79 a8 90 d3 67 b2 bf 1c e9 8d 9a 4b 68 c0 bf
       -0.07189676553432611 -0.1281828407916884
0006a0 54 3a 5c 86 ee d8 a0 3f a7 82 0e d4 0c bf b6 bf
       0.032905057813071764 -0.08885269333996836
0006b0 de 87 db 85 79 ab ca bf 06 2d 5e e5 44 f8 a5 3f
       -0.20835799251568593 0.04290976810360729
0006c0 c7 23 9b 10 ef c4 b5 bf 42 8b 20 e0 3f 68 c8 bf
       -0.0850362220327404 -0.1906814426775672
0006d0 1e 3d 21 22 66 de a2 3f 0e 2e 3a a4 b3 c1 ad bf
       0.036853019396057216 -0.05811845187880858
0006e0 88 e9 c4 12 ca ea cb bf 9e 86 cd 1e 43 7e a4 3f
       -0.2181027022978237 0.040025804052459465
0006f0 e1 5f 33 43 66 de b1 bf a5 2e 7f ad 4e d6 cb bf
       -0.06979979649202007 -0.21747764083408075
000700 ba b3 6e 26 98 6e 95 3f f4 ed a5 bb 63 43 ad bf
       0.020929696412782063 -0.057154766708631316
000710 f7 87 2e 75 8c 1b ce bf 6e 7e 0f bc f9 c2 91 3f
       -0.23521571847692233 0.017345335105231667
000720 8a 85 3e 79 7c e4 ac bf 94 19 e0 87 7c 15 cc bf
       -0.056430711555786564 -0.21940571436443845
000730 c0 b1 36 68 c9 b0 91 3f 7c bb 38 e5 23 08 ad bf
       0.01727595041818275 -0.05670272992244116
000740 93 5b 46 78 2a 65 ce bf c2 b4 6c 65 ef 75 8b 3f
       -0.23746233818812054 0.013408537180647054
000750 d4 37 b8 cf 47 2f ab bf 04 c5 0e 92 1b b1 ce bf
       -0.05309509668960258 -0.23977989799235655
000760 b1 64 87 58 5c b6 85 3f 72 85 86 17 a5 bd aa bf
       0.010601731731116311 -0.05222812568832581
000770 35 11 c9 06 54 b9 ce bf 40 7c 39 f9 ac 79 83 3f
       -0.24003076869315412 0.009509421687822095
000780 c9 0e 66 cb 42 06 aa bf 1b d4 8a 97 62 56 cf bf
       -0.05082901699918591 -0.244823764796508
000790 a1 88 6f 66 fc c6 7f 3f 6b 85 63 8b 65 a0 a5 bf
       0.00775812715343896 -0.04223935438654788
0007a0 60 b5 18 df 3f 4d cf bf cc f9 82 51 d3 f6 75 3f
       -0.24454496758827826 0.005362344229239157
0007b0 32 f0 1e d9 d6 ce a5 bf 01 4b 7b 9f b2 f6 ce bf
       -0.042593683246622396 -0.24190361773670335
0007c0 e6 b9 36 29 95 e7 71 3f e9 76 6c fb 18 f0 a6 bf
       0.004371245060083661 -0.044800549212807024
0007d0 4c f0 c9 fc 05 6d ce bf 32 75 1a bd 70 74 52 3f
       -0.23770212977604144 0.0011263943637581206
0007e0 ac 68 02 5e d9 fb a7 bf a1 dc 30 9e c5 f1 ce bf
       -0.04684333107543756 -0.24175329422152905
0007f0 d2 21 3b 75 53 06 25 3f c7 3b a0 f9 68 b0 a4 bf
       0.0001604058148727676 -0.04040840193930922

tvecs f8 [178, 3, 1]
000000 14 97 71 44 08 98 bc bf 56 8e 10 a1 7c 54 be bf
       -0.11169482871045161 -0.11847666675799337
000010 67 54 dd c9 11 af d0 3f 6b e9 a2 be 4b 9b bc bf
       0.26068539346062497 -0.11174462703903536
000020 4c a3 9f 8a 52 56 be bf 3b ac 2f c7 93 ab d0 3f
       -0.11850467571606521 0.2604722447565028
000030 6e 75 1d 67 44 98 bc bf 74 0c 1e fb d1 4b be bf
       -0.11169841306169356 -0.1183444250182662
000040 30 e6 7e fa 45 a8 d0 3f 22 d0 f2 e0 99 94 bc bf
       0.26027059042425815 -0.11164247266680197
000050 68 bb 1b e3 12 49 be bf 23 6e a9 09 46 ad d0 3f
       -0.11830251736294672 0.26057578033007384
000060 cb 20 d0 65 90 96 bc bf 9c a4 24 b4 4c 50 be bf
       -0.11167242513340907 -0.1184127750208454
000070 e0 aa 32 d1 9b af d0 3f 6e e6 ee 84 85 98 bc bf
       0.26071830205425606 -0.11170229430617848
000080 02 57 e6 99 16 4d be bf 2f 31 7f 42 30 ac d0 3f
       -0.11836377389257893 0.26050955289680905
000090 6d 91 c5 00 1d 9a bc bf 37 82 a2 4d 04 52 be bf
       -0.1117265822300106 -0.11843897719746442
0000a0 8b 09 c4 ac bc af d0 3f 8b 66 e1 5e 44 97 bc bf
       0.2607261359372834 -0.11168315235536334
0000b0 bd f9 3c 15 f4 52 be bf b4 8b d6 70 da ab d0 3f
       -0.11845326918135064 0.26048909205763526
0000c0 d4 0c e6 27 d7 95 bc bf 7d e8 16 b8 34 4b be bf
       -0.11166138385856367 -0.1183350514828891
0000d0 a1 81 7a 7d 5d ab d0 3f b2 2c ee 51 b8 97 bc bf
       0.2604593015076038 -0.11169006347897684
0000e0 c9 2c b7 ce 24 4c be bf 6f d9 3c ae 05 ae d0 3f
       -0.11834936186567115 0.26062147155189214
0000f0 43 8a 27 f5 51 99 bc bf 5f 85 54 d3 fc 50 be bf
       -0.1117144797822585 -0.1184232726996206
000100 ef 53 6e 5c be ae d0 3f ff c7 b3 e8 c7 96 bc bf
       0.2606655028005766 -0.11167573386390471
000110 dd ab d0 a3 22 4e be bf e7 da 3e b4 79 ab d0 3f
       -0.11837975024597776 0.2604660282335502
000120 7c 68 21 e2 43 9b bc bf c2 87 bc cb 1c 4f be bf
       -0.11174415846599745 -0.11839466070207919
000130 49 53 d9 65 93 ae d0 3f ea 86 4a 10 8e 9a bc bf
       0.2606552595728329 -0.11173332116825532
000140 4a f7 88 44 ce 4c be bf 4a 19 01 a6 06 ac d0 3f
       -0.11835946248262733 0.26049963199001935
000150 2c 85 f8 4d 49 97 bc bf fd 7c f6 7b 5c 49 be bf
       -0.11168344644149347 -0.11830690409123075
000160 fb c6 ef bd f4 ab d0 3f 04 4f 7a 90 ef 98 bc bf
       0.260495362744322 -0.11170861508645308
000170 ac 7d e7 52 bb 4d be bf 02 8c 97 c3 0f ae d0 3f
       -0.11837359212903803 0.260623875625413
000180 08 ef 61 97 8c 9c bc bf ad d4 ab 8f 5d 51 be bf
       -0.11176375099051594 -0.11842903859708782
000190 54 96 09 a2 88 ae d0 3f af b9 77 b5 20 98 bc bf
       0.260652693023393 -0.11169628553736886
0001a0 f8 c3 3e 9d 91 4d be bf e7 74 ab cd 93 ab d0 3f
       -0.11837110604280088 0.2604722507947614
0001b0 de ff 4b c0 a0 98 bc bf 37 4b d0 77 c9 4e be bf
       -0.11170391745326877 -0.11838969397676356
0001c0 d5 43 02 46 2f ae d0 3f 3d 1f eb 89 b0 98 bc bf
       0.2606313880615379 -0.11170485846662088
0001d0 fe 28 7d 09 77 4c be bf 55 9f eb 33 c9 ac d0 3f
       -0.11835426313078654 0.26054601736404
0001e0 2b 7b 87 00 31 97 bc bf b8 5a 96 23 4d 4c be bf
       -0.11168199789925086 -0.11835176581221674
0001f0 72 c0 df f5 35 ad d0 3f d6 9e 30 f5 92 99 bc bf
       0.26057194720397725 -0.11171835409242745
000200 90 2b 29 df 30 51 be bf 1f 68 10 2c 31 af d0 3f
       -0.1184263748956893 0.26069287589200657
000210 1c 1c b0 4f af 94 bc bf b0 44 95 66 47 5c be bf
       -0.11164375014787747 -0.11859556440801344
000220 b3 e1 69 42 c3 b1 d0 3f e4 55 fb 16 4c 15 b9 bf
       0.2608497761316599 -0.0979812198741779
000230 ae b0 2c ae 54 23 be bf 10 80 34 c7 7c b9 d0 3f
       -0.11772660496052609 0.2613212533342457
000240 45 b2 89 99 1e ba b8 bf 88 21 4a 30 ad 62 be bf
       -0.09658995865329086 -0.11869318417496377
000250 ea a0 1e 7a 2b c4 d0 3f 5d 5f 52 e0 85 e6 b8 bf
       0.26197325635668156 -0.09726750113111167
000260 bd 10 cd c6 8f 3f be bf 91 ca 91 5b f3 c5 d0 3f
       -0.1181573734621137 0.26208194677671154
000270 d0 e9 b2 26 fe f5 b8 bf 6e b3 78 20 e0 5f be bf
       -0.09750355191037063 -0.11865044396172461
000280 fe 1b 45 31 c9 c7 d0 3f 3f a9 4e 97 f2 cf b8 bf
       0.2621939641143739 -0.0969230288889422
000290 74 a0 9e 3b 60 45 be bf 57 dd ea 14 63 b0 d0 3f
       -0.11824609237248912 0.260765810420215
0002a0 dd ea 3f 93 f9 ee b8 bf ca e1 79 ab bc 4b be bf
       -0.09739646763766126 -0.11834315477779636
0002b0 16 97 13 dc 6e d6 d0 3f 6b 43 59 6f 89 af b8 bf
       0.26308795444343624 -0.09642847984765772
0002c0 bc 13 2a 06 85 7d be bf d3 84 0a 4c d4 b7 d0 3f
       -0.11910277748582038 0.26122004915130254
0002d0 d6 91 0b b8 e0 d8 b7 bf f2 a8 ea 71 81 b8 be bf
       -0.09315304272929067 -0.12000283270996073
0002e0 47 e7 8e e1 16 b4 d0 3f e2 24 bb 0c 1c 8c b7 bf
       0.26099178340119916 -0.09198165236297798
0002f0 7e f8 bc a7 e1 20 bf bf 16 ce f6 37 e2 a8 d0 3f
       -0.12159548134965978 0.26030784096949
000300 6d 36 d9 ea 48 e0 b7 bf dc 4c 8d 17 3b d1 be bf
       -0.09326606496434815 -0.12038010907172086
000310 30 1b 46 e0 18 a1 d0 3f 33 29 83 80 4a 3c b8 bf
       0.25983259107345 -0.09466996800907594
000320 b3 c8 52 e4 a3 85 be bf 7c 63 81 4d 95 c0 d0 3f
       -0.11922668766308923 0.2617543465508374
000330 5d 18 d1 58 65 6b b8 bf 4d 27 18 2e 11 ef be bf
       -0.0953887311780774 -0.12083537459707579
000340 11 50 ae b3 22 d6 d0 3f 19 e9 4e d9 91 a2 b8 bf
       0.26306979701007643 -0.09623061709763582
000350 a6 64 47 59 4f 21 bf bf b4 fe 5a fb 7f 86 d0 3f
       -0.12160201959285874 0.25820922419004977
000360 ab d9 9a cc 2c e5 b7 bf a3 9e 4d 73 34 78 be bf
       -0.09334068293796942 -0.11902168097514702
000370 37 29 a1 2d 2b 66 d0 3f 27 04 da 28 73 ad b7 bf
       0.2562358804322175 -0.09249038455347201
000380 77 65 43 ef 1b 51 be bf 10 2e 59 88 b0 b2 d0 3f
       -0.11842512694729189 0.2609063464667267
000390 df 81 3c 26 30 62 b8 bf 9b 63 53 90 5f d1 bb bf
       -0.09524823125366975 -0.10866353295877078
0003a0 ef e7 55 c1 a8 ec d0 3f 06 de 6a 95 1b de b8 bf
       0.26444453125407014 -0.09713909528624506
0003b0 06 e8 11 40 24 a9 bb bf cf bd 87 e5 e8 d9 d0 3f
       -0.10804964603622133 0.26330015578329563
0003c0 ba 98 17 32 c1 d4 b8 bf 80 8b 12 91 c1 05 bb bf
       -0.0969963786406848 -0.10555658141906399
0003d0 35 af 59 bf 29 8d d0 3f b6 49 dd 74 15 7f b8 bf
       0.25861591040187487 -0.09568914511809265
0003e0 54 42 67 04 66 0f ba bf 5e e0 89 ec 73 9a d0 3f
       -0.10179746253494076 0.25942705249281584
0003f0 1a 4b bc 3a 05 77 b8 bf 2b 1e 17 f3 d5 6a b9 bf
       -0.09556610759709053 -0.09928643402883412
000400 2f ec 85 7d 72 bf d0 3f 5d a6 67 d8 f8 98 b8 bf
       0.26168501146429696 -0.09608416827509232
000410 df 5c 40 af 45 29 b9 bf 59 6c c0 71 b1 b5 d0 3f
       -0.09828601387595225 0.26108966930923355
000420 f4 96 4d e3 70 a3 b8 bf 07 7f 5a 57 f0 b5 b8 bf
       -0.09624391126052584 -0.0965261662736304
000430 d7 d7 9e 24 a5 77 d0 3f c1 0a 8d 70 5d be b8 bf
       0.25730255676478236 -0.09665473935914816
000440 11 fd 3e 25 27 0f b8 bf ef 2f 87 f3 ff 66 d0 3f
       -0.0939812150891053 0.25628660947836485
000450 31 a3 61 2e e5 ca b8 bf c2 00 84 cb 4b 97 b7 bf
       -0.09684593565328893 -0.09215234488147231
000460 71 51 24 3c 43 56 d0 3f 15 fd 03 cd 2e c3 b8 bf
       0.25526505349377887 -0.09672825341475673
000470 60 06 67 c2 74 1d b7 bf 88 9b 41 d3 76 3c d0 3f
       -0.09029321428445192 0.2536904395150761
000480 4e 40 09 e5 23 51 b9 bf e7 3d d0 a9 a3 b2 b6 bf
       -0.09889435140326094 -0.08866331954799699
000490 20 66 dc ea 88 32 d0 3f b4 fe 67 0d 9e e1 b9 bf
       0.2530844014705469 -0.10109889819431822
0004a0 43 c4 ae b6 ff 2a b6 bf 4c 2b 9f 30 5c fc cf 3f
       -0.08659361085916921 0.24988891958340742
0004b0 9e db 6a 98 6c 2b ba bf 6c b7 33 c9 26 9f b5 bf
       -0.10222510071876775 -0.08445970928343421
0004c0 61 c7 b9 cb 49 c4 cf 3f dd f9 ee 73 e8 b7 b9 bf
       0.24817774245780824 -0.10046246366889684
0004d0 a8 ef 0c 5f ca 06 b5 bf 3d de 41 ef 30 69 cf 3f
       -0.08213486500329614 0.2453976791618845
0004e0 28 5c a8 06 c3 63 b9 bf 95 b1 7c 21 10 4f b4 bf
       -0.09917849457302508 -0.07933140580707339
0004f0 44 fc 54 89 e5 79 cf 3f 8c aa dd c8 97 fa b8 bf
       0.24590748983061606 -0.09757374433471905
000500 54 6d 2c 08 67 db b3 bf 28 d2 ce 3b ae 80 cf 3f
       -0.07756656598615069 0.24611452026660285
000510 22 34 4d db 52 78 b8 bf 7e b8 37 54 a6 55 b3 bf
       -0.09558599332849885 -0.07552566104979694
000520 f3 9d 09 c4 fb 60 cf 3f c5 9b 83 bd c2 82 b7 bf
       0.24514720031878276 -0.09183900000390029
000530 d9 d8 82 4a 3d 93 b2 bf 6b 1c 98 68 c3 f1 ce 3f
       -0.07255919522399114 0.2417530308450496
000540 9d db ba 59 d3 78 b6 bf d7 be 47 bf 0f 78 b1 bf
       -0.08778115215942113 -0.06823824329307669
000550 97 82 35 b3 b7 21 cf 3f 43 33 64 c8 a7 c5 b5 bf
       0.24321647882881756 -0.08504723207825031
000560 52 e0 1a 6e 12 8b b0 bf 99 d7 fc 5c 85 63 cf 3f
       -0.06462207019910807 0.24522463837064093
000570 63 91 3a 07 49 0a b5 bf 91 f6 45 3b 88 86 af bf
       -0.08218819071277532 -0.06157327388335177
000580 85 4a 6f 9b 2b 5e cf 3f 66 40 24 16 8b 0a b1 bf
       0.24506135072313753 -0.06656712809149354
000590 9b 5d a8 b4 86 fd aa bf b3 da 60 45 41 11 d0 3f
       -0.05271550135892796 0.2510531594775031
0005a0 cb 90 39 0c c1 14 b0 bf 21 94 5f 7f db 88 aa bf
       -0.06281668232401498 -0.051825389193062905
0005b0 b0 5c ff 12 02 15 d0 3f a0 ce 96 77 9b b7 ae bf
       0.2512822328112163 -0.05999456248119128
0005c0 f4 04 66 14 3e 12 aa bf 95 db 42 f6 dc 0e d0 3f
       -0.05092042922025 0.25090717362348275
0005d0 79 6d 17 37 21 9e ad bf 28 bd 5a 0f 31 bd a9 bf
       -0.057847059226072646 -0.050271542667696345
0005e0 63 0e 9f 39 b5 25 d0 3f 6a 29 35 33 27 98 ac bf
       0.2523015082080972 -0.05584833622067971
0005f0 a6 42 0e b9 1e fe a9 bf 7c c8 09 14 86 32 d0 3f
       -0.05076690682392852 0.25308372456414197
000600 14 53 83 97 3d 66 ab bf ed ca 1b 28 9c 83 aa bf
       -0.053514408822286225 -0.05178535451513775
000610 9d 2e b2 d3 7c 2c d0 3f a3 1e e1 ef c7 5d aa bf
       0.2527153079360945 -0.051496742279195894
000620 20 09 5c 74 65 6e ab bf a2 0a e0 7a 4b 38 d0 3f
       -0.053576631979028955 0.2534359645798451
000630 cb 6e 7c 98 ee 6d aa bf 60 7a e1 c2 3b 41 ad bf
       -0.05161996470834892 -0.057138316668660094
000640 4e d9 51 ae 12 3f d0 3f 85 49 24 b8 b0 1f ab bf
       0.2538496687260662 -0.0529761528761297
000650 87 db fa cf 86 20 af bf 00 67 6e c5 89 0a d0 3f
       -0.060795033348248366 0.2506431987800255
000660 0d 71 e0 58 62 68 ac bf 5a 17 4e 16 98 5b b0 bf
       -0.05548388800545654 -0.06389761490399107
000670 d6 81 ba b3 1b d0 cf 3f 32 e4 08 f1 5b fb ad bf
       0.24853845859344287 -0.058558343098816926
000680 f4 f3 00 69 ad 07 b1 bf db 05 e6 f8 2e 87 cf 3f
       -0.06652339757506792 0.24631297257660276
000690 96 a2 c7 53 09 23 b0 bf 72 16 d9 bf 83 50 b1 bf
       -0.06303461356550097 -0.0676348060015586
0006a0 73 ee f5 19 06 18 cf 3f 2f 33 6b f2 34 97 c1 bf
       0.24292064921961617 -0.13742696606495872
0006b0 d8 8a 13 81 6b 82 b1 bf c3 86 48 7d 30 19 ce 3f
       -0.06839630032804267 0.23514371983860913
0006c0 18 77 a6 79 db 6c c3 bf 62 d2 f2 84 a1 11 b1 bf
       -0.15175956191972584 -0.06667527671636145
0006d0 ba 3b 6f c2 d6 b0 cd 3f c6 47 3d 65 d3 ea c3 bf
       0.2319591950785858 -0.15560381358460357
0006e0 21 fe e2 37 b2 35 b1 bf fd ff 63 e9 64 4c cd 3f
       -0.06722558845921657 0.22889386554743388
0006f0 65 32 43 c3 84 c1 c7 bf 87 94 8e 20 88 bb b1 bf
       -0.1855932191305271 -0.06926775736663347
000700 07 14 03 96 72 85 cc 3f ef ce 33 74 1a 43 c8 bf
       0.22282249760442616 -0.18954783128685146
000710 07 e0 34 9d 3f b6 b1 bf 1e 25 17 14 37 2a cc 3f
       -0.06918714130449653 0.22003830414750153
000720 bf 89 4a 0b 2a b5 c8 bf 60 06 af 53 5a aa b1 bf
       -0.19302869368864425 -0.06900562804278243
000730 4c 3e 56 33 b1 1c cc 3f 1b f9 fa 58 8d 4a c9 bf
       0.21962561613735188 -0.1975876507257873
000740 cb 4b e8 01 c0 aa b1 bf a0 73 1b 46 9d e7 cb 3f
       -0.06901168867652456 0.21800580905155886
000750 86 c5 9f 37 73 b9 c9 bf 01 4f d4 ae 90 88 b1 bf
       -0.20097198692341695 -0.06849006908697321
000760 22 87 d1 7d 11 bd cb 3f 41 47 89 4b 85 25 ca bf
       0.21670740741233724 -0.20427004040043964
000770 e4 c3 c4 e6 67 6b b1 bf 40 fc a5 ae 2e a5 cb 3f
       -0.06804513343810431 0.21597846534493392
000780 2a 5c bf 7b 11 8b ca bf c3 62 64 79 b0 4d b1 bf
       -0.20736902754171754 -0.0675916954391012
000790 d6 22 86 fa 48 89 cb 3f 3c d0 3b 8f 23 d6 ca bf
       0.2151271079312866 -0.20966000074224833
0007a0 7f 7b de 18 8e 1b b1 bf e2 79 ef fb cf 65 cb 3f
       -0.06682670695452762 0.21404456903014962
0007b0 d7 86 80 01 ce 10 cb bf eb 26 50 e4 30 f7 b0 bf
       -0.2114503390630975 -0.06627183507967131
0007c0 d2 ff 3d 84 65 67 cb 3f d5 42 51 e1 f8 4b cb bf
       0.21409291226518562 -0.21325598718478625
0007d0 06 34 cc 16 96 b4 b0 bf a0 ff 98 01 fa 69 cb 3f
       -0.06525552803596221 0.2141716487694767
0007e0 8d 8d d1 a4 ef 89 cb bf 3e b4 3e 11 e8 75 b0 bf
       -0.21514697597295332 -0.06429911061305035
0007f0 67 71 49 af ff 64 cb 3f ed 22 87 f0 40 b2 cb bf
       0.21401973780565273 -0.21637737030530194
