intrinsic_chessboard_calibration_params_right.npz (npz, 2056 bytes, 4 tensors)

mtx f8 [3, 3]
502.71906568727854 0.0 323.49687377061775 0.0 501.9853889074529 234.07654666084588 0.0 0.0
1.0
00000000: 98a8 054b 816b 7f40 0000 0000 0000 0000
00000010: b230 e931 f337 7440 0000 0000 0000 0000
00000020: 9fb5 2827 c45f 7f40 6f9e fb11 7342 6d40
00000030: 0000 0000 0000 0000 0000 0000 0000 0000
00000040: 0000 0000 0000 f03f

dist f8 [1, 5]
-0.41328541069749547 0.23913069561010028 0.0008942169100224244 0.0009998022377029595 -0.08646622514926393
00000000: dc04 b7a6 4473 dabf f9bb 8eaa d59b ce3f
00000010: 186b 2931 3c4d 4d3f f22c 757a 7961 503f
00000020: 6783 3989 a622 b6bf

rvecs f8 [20, 3, 1]
-0.08272646235389569 -0.1548005229751614 1.6033946096985963 -0.012174442328113813 -0.1335139086762037 1.5805875433113092 0.17725596667232424 -0.006605814968140384
1.617735972387541 0.36532867952146764 0.08668100618154329 1.5371775765209315 0.505991829515714 0.136704481560206 1.5138958954588173 0.5486602306860991
0.15011137194894847 1.5688290929516202 0.5659317960921955 0.02573003372842576 1.6807188260469834 0.5064555125022158 -0.19369051770953088 1.7579411749237652
0.306352851036308 -0.6095619839340707 1.6673445960890951 0.09608973283704965 -0.680431395077414 1.6521486302351585 -0.07418354398213674 -0.7546981151818384
1.6223416666952963 -0.17125728880038363 -0.7733985335577951 1.5699695222216676 -0.2861987647475528 -0.7128420626663757 1.5657320368072951 -0.417573061232497
-0.6253402103189388 1.590519951115382 -0.33691788382758087 -0.41892649242668734 1.6103340252873124 -0.3392750853256513 -0.21668213533290426 1.6188857438749593
-0.4083635543100632 -0.19602578917571786 1.579832167749453 -0.49765702754457597 -0.2707470778500378 1.5542155833966558 -0.06927370878213908 -0.07740197245105979
1.593840721173152 0.09514508500088781 0.044238795283249886 1.5811192148430755
00000000: c0e1 52ba 8f2d b5bf 767f cae7 80d0 c3bf
00000010: 7ccf 331b 81a7 f93f 7b98 2bfd e9ee 88bf
00000020: 8ba7 a9d7 fb16 c1bf fcca ef29 164a f93f
00000030: a472 f0d1 52b0 c63f 7a83 06f4 b20e 7bbf
00000040: d979 6f1d 3fe2 f93f f479 b58a 8b61 d73f
00000050: 20ee bbf6 b930 b63f bdd4 b483 4798 f83f
00000060: ba05 fac6 1531 e03f a544 c24e 887f c13f
00000070: 45b5 08e7 ea38 f83f 1d34 6de6 9f8e e13f
00000080: 72a3 a374 d936 c33f 4ed9 f388 ec19 f93f
00000090: ce70 7fff 1c1c e23f 23e4 8d55 f958 9a3f
000000a0: fc4a 7a6c 39e4 fa3f 116e e230 e234 e03f
000000b0: 8eca 8dd3 d9ca c8bf 216e e9ec 8620 fc3f
000000c0: f72f 0ffd 489b d33f fa36 3c22 8881 e3bf
000000d0: 03d7 f586 71ad fa3f b539 0434 5699 b83f
000000e0: c9ee a00f 18c6 e5bf f7db ef66 336f fa3f
000000f0: ddfd 4d57 b1fd b2bf fee1 61a9 7c26 e8bf
00000100: 964f 1689 1cf5 f93f 09b5 4c43 c2eb c5bf
00000110: 7cf6 0c48 aebf e8bf 7a8a 9a5c 981e f93f
00000120: fcc3 af9f 1451 d2bf 43b0 4b28 9acf e6bf
00000130: 5630 4609 3d0d f93f 9bc9 6b5c 84b9 dabf
00000140: 0132 0679 c902 e4bf 3ed1 5a0c c572 f93f
00000150: f586 1e07 1090 d5bf a8a3 1910 b1cf dabf
00000160: b3eb 639c edc3 f93f e28f f4d8 aeb6 d5bf
00000170: 38ee 707e 3dbc cbbf 1375 debc f4e6 f93f
00000180: 70f6 a8e3 a022 dabf 9355 d780 5f17 c9bf
00000190: 6771 5a18 fe46 f93f f46c 7bdc 9cd9 dfbf
000001a0: 649f 368d eb53 d1bf 85f4 d928 11de f83f
000001b0: 5d21 b1f9 ebbb b1bf e4bc 529c 9dd0 b3bf
000001c0: 428c c720 5f80 f93f 4836 74a4 6d5b b83f
000001d0: 7b78 e9a5 77a6 a63f 5640 6da9 434c f93f

tvecs f8 [20, 3, 1]
2.0546265721586607 -3.230199673542064 15.464394017426532 2.363676613530938 -3.398970244840075 15.277636994278843 3.296367832664079 -3.553887572161937
14.182867700942454 0.9171968936471904 -3.471321190892683 13.098911188738082 1.0599108523589496 -4.802241806803351 11.157839801983036 0.520745658082327
-3.3795665409136006 8.261665245843226 2.3459618192596583 -1.540457996355498 8.836245551592752 2.5455643779300483 -2.3089520864479747 10.09406676326108
-0.3619929057708093 -3.7338476150645414 9.85755069613456 2.7893741275454973 -2.162853646129912 12.191856127801577 2.7278544637991478 -2.460842968993495
13.194057025794583 2.6577148823482855 -3.5620338379696856 13.34643236586774 2.3217637186178868 -3.26240607044566 13.636331313683694 1.654563270396031
-2.519022686819078 13.847393612970652 3.7344661720056753 -3.808822526147403 13.387656079672793 5.129721383291246 -3.473069279390578 12.659619480015724
4.647498843798687 -3.5667127334046693 12.20915365603602 3.7475424480934802 -3.9102213236089916 11.89648447189221 2.4399719654807406 -4.079298701648997
10.879844510750871 4.559644133284673 -4.157710313976302 10.855377019593286
00000000: f04f 670e e06f 0040 e94d 2bed 72d7 09c0
00000010: 2a9c 7a0d c5ed 2e40 b87b cb48 cfe8 0240
00000020: 6752 cd4f 1731 0bc0 bc2c a56f 268e 2e40
00000030: 6a07 2719 f65e 0a40 58c5 809b 5c6e 0cc0
00000040: c915 d6d5 a05d 2c40 9ea3 c64c ad59 ed3f
00000050: e55d 660b 44c5 0bc0 56ad c17c a432 2a40
00000060: 2eea f814 65f5 f03f 3fd1 4ee0 7e35 13c0
00000070: 6b0c e760 d050 2640 47ec 5fcc f2a9 e03f
00000080: c009 bf2e 5a09 0bc0 fcca b2fc f885 2040
00000090: 4414 5ba1 87c4 0240 3a56 b348 b7a5 f8bf
000000a0: 5f08 7f60 28ac 2140 bf93 48db 505d 0440
000000b0: a299 1adf bb78 02c0 9fb1 cf84 2930 2440
000000c0: 4fdb ea4a e42a d7bf 3299 977f ebde 0dc0
000000d0: b41e 85e2 10b7 2340 7aee f061 a350 0640
000000e0: 734c 6136 864d 01c0 d3e3 64f7 3a62 2840
000000f0: a11e 725c a5d2 0540 4d59 4370 ceaf 03c0
00000100: 8bb1 4671 5b63 2a40 1c3a 2e05 0043 0540
00000110: ef99 ca98 0b7f 0cc0 0f5b 4395 5fb1 2a40
00000120: 7e06 44db f892 0240 17b0 965a 6819 0ac0
00000130: 6662 cb37 cd45 2b40 5a38 f855 1779 fa3f
00000140: f128 ce5d f526 04c0 b218 5d93 ddb1 2b40
00000150: f142 e6cc 2fe0 0d40 d291 d0f1 7778 0ec0
00000160: 9794 90db 7ac6 2a40 a64f abae d584 1440
00000170: 6ecc dd8b d8c8 0bc0 b2f1 fca4 b951 2940
00000180: b040 d9ef 0997 1240 3c99 81af a088 0cc0
00000190: ef06 2130 166b 2840 5977 f788 f7fa 0d40
000001a0: fb2d 081e 2248 0fc0 394c 4003 00cb 2740
000001b0: 482c 9705 1085 0340 73ca c8ad 3351 10c0
000001c0: f07a cefa 7ac2 2540 7a6c 075a 133d 1240
000001d0: 9714 03d0 7ea1 10c0 65ce 09fa f3b5 2540
