intrinsic_calibration_params_left.npz (npz, 9640 bytes, 4 tensors)

mtx f8 [3, 3]
461.45701636497813 0.0 303.34557892539067 0.0 456.70390229784795 227.01332952076885 0.0 0.0
1.0
00000000: 1655 64f0 4fd7 7c40 0000 0000 0000 0000
00000010: d66b c47d 87f5 7240 0000 0000 0000 0000
00000020: 614d 0e2f 438b 7c40 c1f8 0732 6d60 6c40
00000030: 0000 0000 0000 0000 0000 0000 0000 0000
00000040: 0000 0000 0000 f03f

dist f8 [1, 5]
-0.3219305457456242 0.14823323546630573 0.0009089942734306887 0.013157105928804974 -0.03646547005845652
00000000: 96e5 6393 829a d4bf cc07 4181 4ef9 c23f
00000010: ea02 9c56 32c9 4d3f 1dd0 64dd 1cf2 8a3f
00000020: 582e ab22 9aab a2bf

rvecs f8 [178, 3, 1]
-0.17758831047372214 -0.289002075394193 0.014486392330205879 -0.17576761035741895 -0.2885729737090763 0.014082803488691939 -0.1754881473388081 -0.28873810035264097
0.01392287605976252 -0.1768564042172306 -0.29010257405643725 0.014112940910429734 -0.17775108003362555 -0.2889575963348751 0.014460413297046094 -0.17644801966285847
-0.28891828204489517 0.014403351292027905 -0.1769541087587071 -0.28917422094845396 0.014222034901946191 -0.17676440964204676 -0.2888991665717477 0.014294124540628717
-0.17699252064057158 -0.2896867842585165 0.014314698861630193 -0.17652427507933888 -0.28964616962409684 0.014354280448313777 -0.17702634267673253 -0.2889105631623639
0.014385210727906004 -0.1764624650158595 -0.2891126833409593 0.014243890603854713 -0.17642651477865093 -0.2896606417476434 0.0143760532860528 -0.17644305574728888
-0.2890468767659095 0.014217045701758775 -0.17656951398131965 -0.28932905798103087 0.014179308501843358 -0.17712633395652894 -0.2880806980138165 0.01433802040695577
-0.17720340198355386 -0.2888340129586115 0.014275434404674358 -0.17643601387870447 -0.2893627607681416 0.014197154070710257 -0.17710088941565452 -0.2892912863188509
0.01430400415391006 -0.17724040787380527 -0.2888834481523366 0.01444989419856223 -0.17653810851311655 -0.28945862597555233 0.014277116958196076 -0.1773838138641599
-0.28894040514988617 0.014395037814277353 -0.17760153406695997 -0.2889800393767883 0.013685573780569385 -0.15769637504680106 -0.25075252222534794 0.012390373923555366
-0.18444375459918094 -0.2434548263324409 0.008392067962488724 -0.1669175596423833 -0.24631084046283963 0.014357750910389514 -0.1771381087939505 -0.24274768345116185
0.009775535513739806 -0.172453361126239 -0.2490985143685457 0.01131013824810517 -0.17389434104914364 -0.24391581488158384 0.011533530008507112 -0.178437596741286
-0.24224237043444077 0.011615343669037489 -0.18471317689897898 -0.24983876870832525 0.01242237511205477 -0.17106791368510985 -0.23708063010714056 0.023244020049297712
-0.15830054116453374 -0.24367575120558038 0.022974636026377993 -0.16307387354451397 -0.24295894125755058 0.015498107226166217 -0.17895218827449846 -0.2307979816328132
0.011381929593098963 -0.16193090442139252 -0.2259649829226916 0.006726062642665075 -0.17971135498873106 -0.26379168073899545 0.00039002415093610177 -0.17167422965397863
-0.23747288309137413 0.00921433840618795 -0.1762341531850117 -0.24220253181417173 0.019757250001216288 -0.18815377222994079 -0.23330569587893926 0.015418526914029573
-0.18882429407637263 -0.2458843320710546 0.009021276031683982 -0.19563522177076392 -0.25841530820301406 0.003216321291919156 -0.1947488080796077 -0.24496507724263486
0.0018999824227903862 -0.1917956469399645 -0.23254915117175443 -0.0005840978951827315 -0.18383019554925278 -0.23725011227490836 -0.0028052364343576076 -0.17633355738962744
-0.244702438576906 -0.0034527400470084485 -0.17682928054197278 -0.24198764345436125 -0.0025148391856397406 -0.17308410844227815 -0.24460326937659166 -0.00011931045535293354
-0.15784635353169005 -0.23917843893203913 0.0031386182899262524 -0.15185056750935805 -0.24460123796229435 0.0003084013882912826 -0.14992820264669598 -0.25002455114169564
-0.0024951132230992823 -0.16404830651686242 -0.25631889471978686 -0.003554042841335594 -0.15608763349935106 -0.25577534636794885 0.0007320086403434707 -0.15826762093100052
-0.24789237977679351 0.0034175841867992085 -0.15506295846702617 -0.24282138208983123 0.004481326859814012 -0.1570836285770387 -0.24348545844170388 0.0035274356063387515
-0.16022374782415424 -0.2513164568892319 0.008532353743338883 -0.15293868578211822 -0.23192263964740029 0.012587181869965996 -0.15569283856979665 -0.22123650009754164
0.009847852201024769 -0.15316884900888594 -0.18962154289117225 0.02108420500338489 -0.15143368308360622 -0.18311687861609058 0.02272315419248087 -0.14434682353193976
-0.1802292665054413 0.025409756516565348 -0.14268603711014516 -0.173769624976087 0.024355865258420942 -0.13801592376056573 -0.16567714887312962 0.019875656412356602
-0.13379573206675055 -0.16156111665302567 0.014114040685896462 -0.12561484856050914 -0.15704376586110375 0.015389303752377051 -0.1132081133204655 -0.14537815053861794
0.01946452350156924 -0.09226358424725173 -0.14471348339797566 0.016925305170660522 -0.07901454146256291 -0.1512559684730634 0.019085631420405973 -0.07281996847318298
-0.15796696376473587 0.021274688136922897 -0.0586610550974662 -0.17233378446523173 0.026237901878719355 -0.03139157235934688 -0.2199615357680084 0.040340407015533694
-0.02984011356578172 -0.23287550507025234 0.03932515310587209 -0.04216669546456765 -0.22744102942432415 0.03700865360644982 -0.051270362348496384 -0.24608314217888982
0.01971578032979425 -0.03814799938317298 -0.2567064789573754 0.01994976447300035 -0.044044799539718835 -0.2654847929445584 0.013851903880284238 -0.04923684375377556
-0.24093485642392756 0.01379530736195429 -0.04108922571256521 -0.275298087629199 0.012060867850885025 -0.04033614003487608 -0.26529246500221976 0.008828763502131234
-0.048584810912812776 -0.2625443595081026 0.004124929403689497 -0.04206851136718289 -0.2715252061447258 0.0020889914463877637 -0.039688815665205886 -0.2706629352127092
0.00030665793379910656 -0.04087169022446249 -0.27194195124890014 -0.0011713669174672225 -0.043017980487988494 -0.27357182506130073 -0.00264569490008098 -0.04282090378301316
00000000: d879 d1b8 36bb c6bf eed3 928f 027f d2bf
00000010: 01b1 5caa 0aab 8d3f 1431 1795 8d7f c6bf
00000020: c0c1 25c7 fa77 d2bf 7802 5ce3 71d7 8c3f
00000030: 97f1 d346 6576 c6bf abeb 875e af7a d2bf
00000040: 0b58 beca 9883 8c3f acbf 190c 3ba3 c6bf
00000050: 42b3 0363 0a91 d2bf 9710 49dd 3ee7 8c3f
00000060: 5a5b c921 8cc0 c6bf 8719 8c00 487e d2bf
00000070: 1464 94d1 6b9d 8d3f 3bae f244 d995 c6bf
00000080: 675b 261b a37d d2bf 9d37 0416 817f 8d3f
00000090: fc77 01a7 6ea6 c6bf 0b79 7497 d481 d2bf
000000a0: 879b 4a36 7120 8d3f fc31 4157 37a0 c6bf
000000b0: a71b 11ee 527d d2bf 7a65 6aeb 3c46 8d3f
000000c0: 98d8 e4df b0a7 c6bf b151 1e70 3a8a d2bf
000000d0: 4dcb b35b 0651 8d3f 2c3b 35f2 5898 c6bf
000000e0: 589e 7c16 9089 d2bf c33a aae8 c665 8d3f
000000f0: f3dc 2998 cca8 c6bf 3915 10bb 827d d2bf
00000100: c5b9 fa4c fe75 8d3f 007a 1b72 5296 c6bf
00000110: f2b9 f37b d280 d2bf 19a9 7da2 e62b 8d3f
00000120: 7d8f 8fdf 2495 c6bf e6a5 cfc9 cc89 d2bf
00000130: e456 ac35 3171 8d3f 8f3c 05a1 af95 c6bf
00000140: 0f1d ae78 be7f d2bf 11a7 ad92 d31d 8d3f
00000150: e69b 0270 d499 c6bf ade7 7306 5e84 d2bf
00000160: 87cc 5c92 0a0a 8d3f ee44 cd61 13ac c6bf
00000170: 2201 2506 ea6f d2bf 49e6 e585 405d 8d3f
00000180: eb30 21e0 99ae c6bf 9f4c e8a7 417c d2bf
00000190: b3f1 3b5f 703c 8d3f a90a b98e 7495 c6bf
000001a0: f27b 8b62 eb84 d2bf 1e96 70c3 6513 8d3f
000001b0: e9fd 10f0 3dab c6bf 9276 7099 bf83 d2bf
000001c0: b0d7 57f0 6a4b 8d3f 4181 ac4d d0af c6bf
000001d0: 3ce1 8a00 117d d2bf fa9d 1bf8 e797 8d3f
000001e0: 5fe0 47fd cc98 c6bf c50b 0779 7d86 d2bf
000001f0: 6b3c 5533 523d 8d3f e072 b147 83b4 c6bf
00000200: ee26 a7e5 ff7d d2bf d895 1845 257b 8d3f
00000210: 2bbd 44a6 a5bb c6bf 7c7c 9422 a67e d2bf
00000220: db2d 849e 2e07 8c3f 9a0a c312 652f c4bf
00000230: 843b 964e 540c d0bf 8788 4bd6 1f60 893f
00000240: 343b fa5a da9b c7bf 4d5a 931a 8729 cfbf
00000250: 0cbe 8e4b dc2f 813f b065 e5f9 8d5d c5bf
00000260: f215 3816 1d87 cfbf 4f7a d5b4 9867 8d3f
00000270: 6f99 1228 76ac c6bf bd1e cd28 5b12 cfbf
00000280: d2c0 a82a 3205 843f 3cad 0fa5 f312 c6bf
00000290: b4f8 58ca 75e2 cfbf 9e5d 1c0f c529 873f
000002a0: 4afd e175 2b42 c6bf 3f61 f227 a238 cfbf
000002b0: 8841 8d31 e49e 873f 74b9 300d 0bd7 c6bf
000002c0: 2958 5c49 cc01 cfbf bec4 8509 c9c9 873f
000002d0: b2ef f56e aea4 c7bf 6905 707e b7fa cfbf
000002e0: 3165 c2f6 e670 893f 6714 56ab 8de5 c5bf
000002f0: 85a1 6978 a858 cebf 61d8 c1c7 47cd 973f
00000300: b0d1 9e2f 3143 c4bf 2ccb 205b c430 cfbf
00000310: 2db2 7bb9 a986 973f 4455 dacc 9adf c4bf
00000320: 5869 7c51 4719 cfbf 1583 7dbd 78bd 8f3f
00000330: b1e2 17c2 e7e7 c6bf 4141 8ccb c98a cdbf
00000340: db1e f1ba 684f 873f 76cd 59e1 26ba c4bf
00000350: 33da d8a9 6bec ccbf 0c29 4cb1 c98c 7b3f
00000360: c1be 321c c800 c7bf 63c6 6e80 f6e1 d0bf
00000370: 2755 11f9 848f 393f b904 f7d0 6bf9 c5bf
00000380: 6f3a 48ed 8265 cebf daee de90 f7de 823f
00000390: ad16 2f3a d78e c6bf f43b 9318 7e00 cfbf
000003a0: dadb 749a 3e3b 943f 545e 2c3d 6c15 c8bf
000003b0: e9a1 e206 f6dc cdbf c638 c9a6 bf93 8f3f
000003c0: 86c8 dffb 642b c8bf a607 6c46 2379 cfbf
000003d0: 2fb5 312c bf79 823f e6be b92f 930a c9bf
000003e0: 1822 615c e089 d0bf ce1d 6458 1d59 6a3f
000003f0: cc85 d168 87ed c8bf 59a9 b501 045b cfbf
00000400: 1a65 9b97 1a21 5f3f dba7 8f7f c28c c8bf
00000410: 3364 7fab 2bc4 cdbf baa6 c1ad c423 43bf
00000420: a25e f372 bf87 c7bf 2db6 9830 365e cebf
00000430: 1f96 c7d7 01fb 66bf 4180 1617 1992 c6bf
00000440: ac39 78d5 6852 cfbf e0f4 abb2 eb48 6cbf
00000450: ec94 7384 57a2 c6bf 6e17 567b 73f9 cebf
00000460: b71f d301 009a 64bf 73c3 9bbc 9e27 c6bf
00000470: 3acb 3bf1 284f cfbf 0b38 e703 ca46 1fbf
00000480: 3711 1b2f 4f34 c4bf 638b 8f2a 669d cebf
00000490: 3094 1ddd 28b6 693f 3a76 aae2 d66f c3bf
000004a0: 37f9 cde6 174f cfbf a0d2 72e0 1d36 343f
000004b0: a2cc 8eeb d830 c3bf 4071 96f9 6600 d0bf
000004c0: 404a 2db6 a170 64bf 3420 baef 88ff c4bf
000004d0: 46c6 8a5d 8767 d0bf 8533 b538 5e1d 6dbf
000004e0: a049 98f8 adfa c3bf 987f f18e 9f5e d0bf
000004f0: b456 d895 88fc 473f 270a f507 1d42 c4bf
00000500: 06d3 0800 f0ba cfbf 6e40 098a 31ff 6b3f
00000510: ceeb b75f 1ad9 c3bf 4634 6c63 c514 cfbf
00000520: c8af e304 035b 723f a7d9 bcfb 501b c4bf
00000530: 0083 8710 882a cfbf 3ed1 2c92 91e5 6c3f
00000540: eb40 7936 3682 c4bf 484b d29e 9115 d0bf
00000550: 20cb 4822 6979 813f 081c ddae 7e93 c3bf
00000560: ee68 3e1c a4af cdbf c3ab d7f3 4ec7 893f
00000570: b878 f030 beed c3bf 4adb 4c46 7a51 ccbf
00000580: 6f2b 1d59 1c2b 843f 142b a16e 099b c3bf
00000590: afd5 aaca 8445 c8bf d689 ce0b 1997 953f
000005a0: 76af 2dce 2d62 c3bf 0f38 80b6 5f70 c7bf
000005b0: cb84 7910 bd44 973f f5f2 2ceb f479 c2bf
000005c0: da22 b6aa c011 c7bf afae f3e4 0305 9a3f
000005d0: f4f0 7d3b 8943 c2bf c2bd 2744 153e c6bf
000005e0: a4b7 0073 bef0 983f 757e 707b 81aa c1bf
000005f0: 0664 0da8 e834 c5bf 4d44 1cb9 485a 943f
00000600: e418 c9f2 3720 c1bf fd3c 2ae0 08ae c4bf
00000610: aa5f 4879 d2e7 8c3f f2cc 3ab9 2514 c0bf
00000620: f201 3597 021a c4bf 55ec 9862 6d84 8f3f
00000630: 556f 5af8 34fb bcbf dde3 0e51 c09b c2bf
00000640: df60 7c0f 82ee 933f d424 f414 969e b7bf
00000650: 8d05 3eaf f885 c2bf aa31 bb00 de54 913f
00000660: 0f7a 7d07 4c3a b4bf 9f53 f506 5b5c c3bf
00000670: bebb 180b 2f8b 933f e28b 1657 54a4 b2bf
00000680: 09e6 9bef 4238 c4bf 5e6b 1f27 08c9 953f
00000690: 9d8b 6262 d208 aebf 2815 2390 080f c6bf
000006a0: 0864 f0c9 1bde 9a3f 128c 4e61 8e12 a0bf
000006b0: 2532 4019 b327 ccbf 7697 ad71 7fa7 a43f
000006c0: f6ee 7e1f 688e 9ebf c479 2853 ddce cdbf
000006d0: a8f4 ff2c 6d22 a43f 025d 0084 df96 a5bf
000006e0: a2b1 92a3 c91c cdbf 6640 d159 ccf2 a23f
000006f0: d4eb 14e3 1b40 aabf 08ac e003 a77f cfbf
00000700: fc24 ed9e 5f30 943f 7861 8473 2288 a3bf
00000710: 70c4 f202 e16d d0bf 62d3 e507 b66d 943f
00000720: bef7 293b 0a8d a6bf ba0f d2ed b3fd d0bf
00000730: 03aa 3911 635e 8c3f 5e88 5c53 9235 a9bf
00000740: 2153 6710 f4d6 cebf 66b3 a9cf b640 8c3f
00000750: 5c8e 4ea1 a509 a5bf 3b33 c1de 7b9e d1bf
00000760: 4cf1 d847 5eb3 883f 02e5 9744 f0a6 a4bf
00000770: 15d3 433f 8dfa d0bf 3bd2 0b94 d014 823f
00000780: 34df e7bb 1be0 a8bf 528a 75db 86cd d0bf
00000790: 9fc9 314e 4de5 703f 8be3 0601 018a a5bf
000007a0: b199 1b42 ab60 d1bf 2c18 34be ee1c 613f
000007b0: b11a 99aa 1752 a4bf c796 bea1 8a52 d1bf
000007c0: cd3d f6cb dd18 343f 744f b159 22ed a4bf
000007d0: a190 c136 7f67 d1bf 0a6e 89a6 1131 53bf
000007e0: 08f8 abe6 7306 a6bf 52b3 6f66 3382 d1bf
000007f0: 72f9 45a2 6cac 65bf be99 aa1a 9fec a5bf

tvecs f8 [178, 3, 1]
-0.044137031703337985 -0.10930422906564044 0.23303669587889084 -0.04420896420826987 -0.10935455909036948 0.2328812246496066 -0.044285992124115554 -0.10932206669462467
0.23278318375961402 -0.04420680685798368 -0.10916436554777728 0.23279599100620021 -0.044128707581964875 -0.10923768617403234 0.23312696597249874 -0.044172166818905005
-0.10927826384461023 0.23293373924447383 -0.044215596989976784 -0.10924842561364859 0.2329015544449675 -0.044192495999061936 -0.10933974223068602 0.23289954945454197
-0.04420287933456748 -0.10928024715103914 0.2327847934103599 -0.0441690741853614 -0.10918279243210534 0.2328941441253565 -0.04418257432664129 -0.10925341016233078
0.23305400027036044 -0.0441992680249727 -0.10928773603602672 0.23290583701965614 -0.04420458753095921 -0.10925424342421751 0.23286368670161364 -0.044248975977524405
-0.10927054359733909 0.23295377787181681 -0.044239198421491786 -0.1091876456243981 0.23287889371865725 -0.04422117334654077 -0.10917415593081464 0.23319971496764388
-0.04424132400725651 -0.1092910492569596 0.23305656315495762 -0.04423539665537574 -0.10928684496135058 0.23282337495898098 -0.04420606592332138 -0.1092425205015145
0.23294167733563068 -0.0442003899136916 -0.10925984550246413 0.23299252076262875 -0.04418814498160682 -0.10922286403995245 0.23289136307271194 -0.04418457463772667
-0.10925392933818406 0.23299701949656937 -0.044211154813090174 -0.10933110869353983 0.23298437276157946 -0.029692998639435746 -0.11014801834523402 0.23200596719116437
-0.030409120189212373 -0.10901557520893661 0.23573718933914167 -0.02913196212747133 -0.10984671080109817 0.2338025968812321 -0.030305764707541188 -0.10928783308321625
0.2355230627952775 -0.029831765802757444 -0.10992777257986179 0.2335712757219375 -0.029902792104086116 -0.10911427596479877 0.2348689244748086 -0.02974435854590522
-0.11000572900687242 0.23539362334177272 -0.028268013047102934 -0.11060224617601172 0.23399854251659233 -0.024696337377501876 -0.1123775909250265 0.2344228591714218
-0.025289475846511884 -0.11245862778044119 0.23219787055159877 -0.026804455027868827 -0.1108906116650012 0.23307906695204067 -0.02750756113138978 -0.11082386244026896
0.23621785636553794 -0.028001250015695187 -0.1129656342963169 0.2338816366988191 -0.029367330239532464 -0.1114989671482161 0.22840268269912609 -0.02584266578543185
-0.10978629671528899 0.23268378944578064 -0.02677347571308434 -0.10090852624087036 0.23390599137116597 -0.02844515423877628 -0.09954753882442015 0.23694418564504707
-0.0301784254123231 -0.09856642708204179 0.23400990599760024 -0.029751757482875653 -0.09518229139471693 0.23144463645497337 -0.02843302510286728 -0.091768154296862
0.23312044803315332 -0.0284317871385616 -0.08997892264189289 0.23438819349319223 -0.029067168313837446 -0.08897739673859957 0.23181891432294413 -0.029425292305936303
-0.08669816938229034 0.22889962405590325 -0.02995110307334939 -0.0843791079611099 0.22866134768344049 -0.029794412531406814 -0.08272969018392265 0.2266335179392927
-0.0304532310995141 -0.0807770706479661 0.22565848407228226 -0.03293678416445153 -0.07908892747483373 0.223353175317699 -0.03507283265543678 -0.07691794438580166
0.22124977629119164 -0.03520157284386776 -0.07505332051802532 0.22011835396184615 -0.03355349165126523 -0.07238957672743722 0.2182930921316021 -0.03201149980218268
-0.07002132237128787 0.21925865899226324 -0.030419495214581278 -0.06836911060077391 0.21886956233521984 -0.02785480109532619 -0.06625192789270165 0.21751525625113902
-0.024156074219810517 -0.06289518052258063 0.21567735728024007 -0.020295421795781025 -0.058538352382382676 0.21711114709875512 -0.01773546120047552 -0.05511189016112606
0.2186560631279827 -0.0017777445088875046 -0.045712587603649255 0.2217752374265313 0.002060343201579924 -0.04422778491509376 0.22236472210692973 0.005369165358369531
-0.043468404446304995 0.22160138641044322 0.00784014805772347 -0.04247511492638814 0.22206711573821628 0.010219441387427256 -0.04236041617653129 0.22287818252830519
0.012188766255059595 -0.0431489631802433 0.2227578968004427 0.014644376473233828 -0.04435779514696722 0.22235302048782105 0.016048079862635952 -0.046630030574560284
0.2235920360520223 0.015084381400665975 -0.05032371661611078 0.2216389388599651 0.013045390310427524 -0.05370087951704287 0.21926961846918064 0.01012357297688028
-0.056560394470308625 0.21742638864623684 0.006115639354692672 -0.05866988946035751 0.21383915322459632 -0.06736363122458042 -0.059214389865944635 0.20074509265891863
-0.0815003531024777 -0.05801913098142642 0.19730873998437765 -0.08611311889449552 -0.05793493932442669 0.1991075968020295 -0.11552793669711835 -0.05991041016660138
0.19176463612066824 -0.11939288432240108 -0.0600339761400401 0.18897671425574966 -0.12314168945877364 -0.05970438243507724 0.1876835158924805 -0.12747245631489348
-0.05973017600208825 0.1882795649624256 -0.13093755249032998 -0.05958526131589175 0.18493241299213362 -0.1344391282235656 -0.059028491598532844 0.18453588607680457
-0.13800694633999788 -0.05835912552373656 0.1845250150865031 -0.14078850671267584 -0.05777997558415215 0.18295915688200415 -0.14277473509719688 -0.05711472305149396
0.18263608566211834 -0.1444616196987915 -0.056455709171353397 0.1822057783536439 -0.1460412280512116 -0.055463746652472695 0.18192169934984911 -0.14804852043863903
00000000: 17ad 6a07 2199 a6bf 5ac3 26a9 5cfb bbbf
00000010: 83ab c87d 25d4 cd3f f9d9 edae 8ea2 a6bf
00000020: ce2d f60e a9fe bbbf 887a dc4d 0dcf cd3f
00000030: 711f b04f a7ac a6bf 433e 2fed 87fc bbbf
00000040: db34 a7e0 d6cb cd3f d966 6e4b 46a2 a6bf
00000050: 2692 ea23 32f2 bbbf 257a 0150 42cc cd3f
00000060: d331 c2b7 0998 a6bf b4b1 9b41 00f7 bbbf
00000070: 7d73 55bb 1ad7 cd3f ffe4 c2f7 bb9d a6bf
00000080: 9652 6009 a9f9 bbbf 2552 18d4 c5d0 cd3f
00000090: ef12 173e 6da3 a6bf 926d 266f b4f7 bbbf
000000a0: 67ac c3d7 b7cf cd3f 6fd3 161a 66a0 a6bf
000000b0: 7aab 0879 b0fd bbbf bd87 1406 a7cf cd3f
000000c0: a312 4382 c2a1 a6bf 79cd 9c4f caf9 bbbf
000000d0: f60f 5a61 e4cb cd3f adcf 3d32 549d a6bf
000000e0: 3d27 c84a 67f3 bbbf 7162 39ae 79cf cd3f
000000f0: 5f70 922f 199f a6bf cea9 9f0f 08f8 bbbf
00000100: 767c aea6 b6d4 cd3f 774a 5955 49a1 a6bf
00000110: f1ec 20f4 47fa bbbf c701 86c4 dbcf cd3f
00000120: cca9 8ed3 fba1 a6bf f7cb 740a 16f8 bbbf
00000130: 199b 672f 7ace cd3f 1ef0 6841 cda7 a6bf
00000140: bead 2a83 27f9 bbbf 7c34 b8ec 6dd1 cd3f
00000150: fbd6 d72c 85a6 a6bf d182 15b7 b8f3 bbbf
00000160: 31a3 39c0 f9ce cd3f e4d6 a05a 28a4 a6bf
00000170: 948f 4a65 d6f2 bbbf 977c 9cfe 7cd9 cd3f
00000180: 3a5e 7c7f cca6 a6bf dcdd 4d8a 7ffa bbbf
00000190: 9d31 6f26 ccd4 cd3f 09bd eb9b 05a6 a6bf
000001a0: 3af5 fd00 39fa bbbf c0b9 9806 28cd cd3f
000001b0: 38d9 d96e 2da2 a6bf 28f9 e25c 51f7 bbbf
000001c0: e515 046b 08d1 cd3f 84ac 4cfa 6ea1 a6bf
000001d0: f7f7 3207 74f8 bbbf fbac 71ec b2d2 cd3f
000001e0: be41 221b d49f a6bf c3ec 0695 07f6 bbbf
000001f0: 4386 f559 62cf cd3f b608 1d4e 5c9f a6bf
00000200: 048d 77c5 10f8 bbbf 90d0 66a9 d8d2 cd3f
00000210: 87cb 1430 d8a2 a6bf 5330 46a0 1ffd bbbf
00000220: 30ba be92 6ed2 cd3f de62 4e68 d767 9ebf
00000230: a811 8318 a932 bcbf 1b0d c81c 5fb2 cd3f
00000240: 5ee8 d982 9123 9fbf 33ea 46da 71e8 bbbf
00000250: 34cf 54df a22c ce3f d256 6ce2 c4d4 9dbf
00000260: 46c1 76fe e91e bcbf d991 a955 3eed cd3f
00000270: 1b57 3271 7908 9fbf 5b70 f194 49fa bbbf
00000280: 8d69 14a6 9e25 ce3f 95e3 04ea 378c 9ebf
00000290: e312 27fc 3924 bcbf 495f 41df a9e5 cd3f
000002a0: e9a4 9568 d69e 9ebf d3a7 cbc6 e9ee bbbf
000002b0: c9a5 bb56 2f10 ce3f 4bd8 c71c 4e75 9ebf
000002c0: 2608 75e0 5529 bcbf 344d f8d4 6021 ce3f
000002d0: 46a7 3d3e 4af2 9cbf 24ab 30c6 6d50 bcbf
000002e0: a3d0 b50b aaf3 cd3f 602b 7825 ff49 99bf
000002f0: 7685 d31d c7c4 bcbf acbc c978 9101 ce3f
00000300: 8566 c6fe 7be5 99bf 0454 78b0 16ca bcbf
00000310: 9727 1cea a8b8 cd3f d15c ed86 a072 9bbf
00000320: 9ddc 88be 5363 bcbf 8a79 f8ec 88d5 cd3f
00000330: 8ae3 ce2d f12a 9cbf a61f cce0 f35e bcbf
00000340: 701d e9ff 623c ce3f 3c14 4214 5cac 9cbf
00000350: 48e4 dfd8 50eb bcbf 1bd1 605e d5ef cd3f
00000360: 2d6a cc2b 7812 9ebf 537a 7041 328b bcbf
00000370: ef75 4192 4c3c cd3f c93e 8ff1 7f76 9abf
00000380: 23ed f069 f41a bcbf 254f fd18 95c8 cd3f
00000390: ea0e 5a8a 816a 9bbf 9b93 1724 24d5 b9bf
000003a0: ec88 a3ab a1f0 cd3f 49aa bdfc b920 9dbf
000003b0: c9ee a58f f27b b9bf 7d52 29e4 2f54 ce3f
000003c0: a847 c3d8 17e7 9ebf 490a cd3c a63b b9bf
000003d0: aa90 995e 09f4 cd3f 0ac6 8ca5 3e77 9ebf
000003e0: d2da b2dc dd5d b8bf f050 3454 fa9f cd3f
000003f0: 43cc c503 8c1d 9dbf 1ef1 8425 1e7e b7bf
00000400: c366 2a0e e4d6 cd3f d233 b5ef 381d 9dbf
00000410: b884 13d2 db08 b7bf 8296 cfac 6e00 ce3f
00000420: 7458 2ea5 c8c3 9dbf 1d54 1301 39c7 b6bf
00000430: 213e ceff 3dac cd3f aa56 84f0 a921 9ebf
00000440: afb8 1eea d931 b6bf a482 b137 954c cd3f
00000450: e875 b780 80ab 9ebf 569b 2885 de99 b5bf
00000460: d06f 1469 c644 cd3f a425 b42d 6d82 9ebf
00000470: 6a87 bfe1 c52d b5bf 3a04 ddbd 5302 cd3f
00000480: d30f 85be 212f 9fbf 461f b35c cead b4bf
00000490: cbe3 9390 60e2 cc3f ccb9 a415 17dd a0bf
000004a0: 96e9 fa04 2c3f b4bf 3240 b93b d696 cc3f
000004b0: 9b63 77fa 10f5 a1bf 0ed1 9cf7 e4b0 b3bf
000004c0: 8280 b5a4 e951 cc3f 47ac 43c8 f005 a2bf
000004d0: 94c4 14c5 b136 b3bf 4afb c195 d62c cc3f
000004e0: 241a 9e5a ec2d a1bf a399 9d90 1f88 b2bf
000004f0: e5ef d22d 07f1 cb3f 1419 7eb1 cf63 a0bf
00000500: 977b 9bd9 eaec b1bf 7b48 def0 aa10 cc3f
00000510: b508 6ec4 4926 9fbf 1a41 1656 a380 b1bf
00000520: bde8 28f6 ea03 cc3f 94cb f60e f885 9cbf
00000530: 429a 98e7 e2f5 b0bf dd66 fd37 8ad7 cb3f
00000540: 2c68 18b3 5ebc 98bf e3a5 6b07 e619 b0bf
00000550: b4cf 00ce 509b cb3f 9e51 7cb3 52c8 94bf
00000560: ad8e 162a bdf8 adbf f46e 314e 4cca cb3f
00000570: 5c92 57a7 3e29 92bf 61be b92b a037 acbf
00000580: 5478 1a00 ecfc cb3f d826 afa1 6620 5dbf
00000590: fee1 8be9 a367 a7bf 8da0 e787 2163 cc3f
000005a0: 5c15 6b55 dae0 603f d6d7 9133 06a5 a6bf
000005b0: c5df 9d7c 7276 cc3f 98ab ef59 fafd 753f
000005c0: 262a 039f 7d41 a6bf 4bc8 b029 6f5d cc3f
000005d0: 789e 07dc 7e0e 803f 145f 015b 4cbf a5bf
000005e0: 7d6c cefb b16c cc3f 02d0 5634 eeed 843f
000005f0: ae0d 3fb4 43b0 a5bf 05ba 79b4 4587 cc3f
00000600: 3c74 8d83 6cf6 883f df4f 6ef3 9e17 a6bf
00000610: a981 d7ac 5483 cc3f 90cc 2ef0 defd 8d3f
00000620: 4c31 f59e 10b6 a6bf b9bc 9453 1076 cc3f
00000630: cfc8 b168 e86e 903f 118f a830 e4df a7bf
00000640: 91a7 3ef1 a99e cc3f ddb8 5e66 8fe4 8e3f
00000650: dea2 28ba 07c4 a9bf 983b f62c aa5e cc3f
00000660: 0a88 f9a5 8ab7 8a3f c592 9582 ae7e abbf
00000670: 866f 2ae0 0611 cc3f 07c0 d5f6 aabb 843f
00000680: 4667 ffe8 7bf5 acbf c7f0 42be a0d4 cb3f
00000690: 424e 5c70 b60c 793f c9fd fbd0 fa09 aebf
000006a0: d31b dad4 145f cb3f fea3 0c31 be3e b1bf
000006b0: f188 da37 5951 aebf cdb9 e6e3 03b2 c93f
000006c0: 2706 3007 35dd b4bf 0113 37fc aeb4 adbf
000006d0: ca53 b9ac 6941 c93f 148e 6865 820b b6bf
000006e0: 8b68 63fb a5a9 adbf f82e 5394 5b7c c93f
000006f0: 8773 e325 3d93 bdbf f203 b6c8 93ac aebf
00000700: 4274 555c be8b c83f e431 8a35 8890 bebf
00000710: bb33 57f8 c5bc aebf b78c b793 6330 c83f
00000720: 25e7 ffb8 3686 bfbf ee1a f9a3 9291 aebf
00000730: fed4 6071 0306 c83f 61b2 8177 0451 c0bf
00000740: 59ce 0621 f494 aebf 9865 0277 8b19 c83f
00000750: f7d2 e1cc 8fc2 c0bf f7c9 5999 f581 aebf
00000760: 1dc3 e284 ddab c73f 83f0 8225 4d35 c1bf
00000770: 5f54 e581 fb38 aebf 6bb2 d135 df9e c73f
00000780: d457 932c 36aa c1bf ff5f 184f 3fe1 adbf
00000790: 7493 8b04 849e c73f 3ce7 fd97 5b05 c2bf
000007a0: ffc6 fe42 5695 adbf b0ed a7a5 346b c73f
000007b0: c900 f848 7146 c2bf a9a5 4017 243e adbf
000007c0: 117f 7e87 9e60 c73f 7e16 11e6 b77d c2bf
000007d0: 887c 2041 c3e7 acbf 6fe7 95d9 8452 c73f
000007e0: 327f 2c9d 7ab1 c2bf f4d4 f883 be65 acbf
000007f0: dff6 91d2 3549 c73f 80a8 c000 41f3 c2bf
