intrinsic_chessboard_calibration_params_left.npz (npz, 2056 bytes, 4 tensors)

mtx f8 [3, 3]
000000 c7 12 81 a4 37 71 7f 40 00 00 00 00 00 00 00 00
       503.0760846177986 0.0
000010 8c 25 6c df 77 65 73 40 00 00 00 00 00 00 00 00
       310.3417658066253 0.0
000020 cf 42 13 17 55 85 7f 40 26 ea 2f 9c aa 8f 6e 40
       504.333273959387 244.48957642896966
000030 00 00 00 00 00 00 00 00 00 00 00 00 00 00 00 00
       0.0 0.0
000040 00 00 00 00 00 00 f0 3f
       1.0

dist f8 [1, 5]
000000 fd c6 6f 5c f3 7b db bf eb 40 0d 4f a7 f8 d3 3f
       -0.429440346021792 0.3120516082754096
000010 4e 2a 38 1d d1 0b 53 3f 33 a3 32 97 33 cf 61 3f
       0.0011624853258377535 0.0021739966992594616
000020 92 27 45 0f 5f 35 c6 bf
       -0.17350376363384307

rvecs f8 [20, 3, 1]
000000 17 9d 59 57 fd 8e b5 bf af 8b 96 74 12 1d c6 bf
       -0.0842130983597723 -0.17276220982338716
000010 69 a8 32 39 d1 6b f9 3f 2f 63 81 08 ca 1e a0 bf
       1.5888225778858447 -0.03148490289522098
000020 8b 45 51 67 e4 91 c1 bf e5 64 c7 1c e5 12 f9 3f
       -0.13726477665708745 1.5671130298781517
000030 20 5e 9d 55 9a e8 c5 3f 63 00 50 73 73 9c aa bf
       0.17116097622305038 -0.05197487623809207
000040 13 be 7b 62 6f ba f9 3f 34 61 6b 21 71 12 b6 bf
       1.6080163809782604 -0.08621890130905713
000050 89 1f 83 de 82 cf d6 3f 2a fb 75 c9 84 5e f9 bf
       0.35641547898966813 -1.5855758542599667
000060 13 1a 8f 03 1b 92 df 3f 59 0f 0a 88 58 3c bd 3f
       0.493292573428705 0.11420205422660724
000070 8a f1 98 d1 d9 07 f8 3f 82 02 91 e0 9f 45 e1 3f
       1.5019167125129536 0.5397490869582529
000080 02 cf 67 ca 0c 4e bf 3f 05 b6 08 27 6a fb f8 3f
       0.12228469792881572 1.5613805317656226
000090 2e 83 2c d5 4a b2 e1 3f 3a e9 fa 5b 78 63 66 3f
       0.5530141986419943 0.0027329779403234807
0000a0 2c 4d 0d d1 c2 a8 fa 3f 9a d7 77 75 c3 cc df 3f
       1.6662014165966168 0.4968727728986494
0000b0 a3 ba c0 22 fd d8 ce bf 95 6e 0d fa 55 ef fb 3f
       -0.24099697300831222 1.74593160320993
0000c0 81 46 08 0d 51 df d2 3f 57 e8 c9 24 11 3e e4 bf
       0.29488016388595645 -0.6325765341309858
0000d0 70 aa 99 6a 42 7e fa 3f fc f7 8f 85 0d c5 b5 3f
       1.6558250583717857 0.08503803740310895
0000e0 87 75 f1 48 e4 53 e6 bf a7 01 87 6b c6 29 fa 3f
       -0.6977406906768672 1.6351989937103129
0000f0 17 02 7e 22 4f bd b5 bf 17 dd d7 f8 31 b0 e8 bf
       -0.0849198779305954 -0.7715082035273636
000100 40 b4 6b fc da ba f9 3f 9a 67 7f b5 94 9e c6 bf
       1.6081189975914327 -0.1767145048350443
000110 76 fb 22 c9 46 2b e9 bf 5e 4b ca ff a8 e3 f8 3f
       -0.7865327766847787 1.5555810920529534
000120 00 6f b6 c7 e9 0b d3 bf e6 14 71 43 1a 27 e7 bf
       -0.29760212424456256 -0.7235232655736155
000130 ae 1b 64 0d 77 c5 f8 3f 9b 9a f6 62 8e 63 db bf
       1.5482092402541912 -0.4279514280737346
000140 19 b5 58 56 fb 29 e4 bf c5 66 b3 1c 9d 25 f9 3f
       -0.6301247297721232 1.5716830369114387
000150 c2 16 47 2a 88 0e d6 bf d5 cc 6d 60 b5 75 dc bf
       -0.34463695648842585 -0.4446843568504851
000160 46 53 dc ab 5c 83 f9 3f 7f 95 fb 06 37 c6 d5 bf
       1.5945708001429053 -0.3402230804625432
000170 e2 46 bd 45 03 01 cf bf 90 b6 0c 4c 5e 9c f9 3f
       -0.24221840768091513 1.6006758661928053
000180 15 7c 0f 93 61 82 da bf 22 ef f2 57 f1 66 cc bf
       -0.4142078338754243 -0.2218915633619583
000190 dc 5a 90 00 21 f3 f8 3f 27 f9 60 df 71 30 e0 bf
       1.559357645228082 -0.5059136736743185
0001a0 10 7d 52 3b 15 91 d2 bf 33 7b a8 46 95 8e f8 3f
       -0.29010515969453454 1.5348103294451902
0001b0 33 76 6c 88 30 54 b7 bf b5 aa 9a 53 48 5c b8 bf
       -0.09112838106781211 -0.09515811959378591
0001c0 6e 07 b5 94 17 3e f9 3f 26 a8 c1 3d 19 be b5 3f
       1.5776592072365605 0.08493192441679351
0001d0 47 f4 fe 0d fd bc 9f 3f 90 f3 0d f7 0a 1a f9 3f
       0.03099437139438901 1.5688581133428876

tvecs f8 [20, 3, 1]
000000 d2 5a 7c 92 c4 19 12 40 f7 a7 61 38 53 4c 0b c0
       4.525163925971997 -3.412268105011204
000010 9f 96 e0 b7 0a f7 2e 40 a9 45 a6 eb 66 1f 13 40
       15.482503648915836 4.780666048072285
000020 84 f4 0c d0 2e 33 0c c0 47 01 39 2b 2b ce 2e 40
       -3.5249916318849177 15.40267310210096
000030 0d 66 22 59 63 e1 16 40 93 aa ef c2 17 a0 0d c0
       5.720105545734907 -3.703170321406398
000040 1d b3 cf 76 03 66 2c 40 7b c9 f2 6e c5 b0 fd bf
       14.199245179037058 -1.8556570371552812
000050 52 4f 76 76 2f 61 11 40 f2 ba 94 6f 3a 39 30 40
       4.344907618495045 16.223547910510156
000060 e0 ed 1c 64 66 59 0c 40 56 47 0f a4 c9 aa 13 c0
       3.543652326710557 -4.916784823830161
000070 82 1c 3a d6 31 8f 26 40 7a fb 29 c6 55 67 08 40
       11.279677099794075 3.050456569820594
000080 1c eb 6e 83 5e 84 0b c0 36 65 17 75 79 9b 20 40
       -3.4396333950256928 8.303661021333578
000090 0d c9 f5 c2 ea 67 13 40 96 9f 06 68 a1 26 fa bf
       4.851481481792018 -1.6344312728415153
0000a0 f8 bb 97 30 15 c6 21 40 51 e9 18 88 5e 1f 14 40
       8.886880415460823 5.030634047050925
0000b0 4e a6 e0 a5 78 eb 03 c0 c8 b0 ae 60 0b 2d 24 40
       -2.4899762114699007 10.08797742969945
0000c0 2a 47 ee 33 65 62 01 40 2c 8c 17 3d 5d c3 0e c0
       2.1730445916263266 -3.8453926823435918
0000d0 26 ae 41 cd 2f 9c 23 40 f5 e1 27 db d7 2e 15 40
       9.805052198665248 5.295745300587886
0000e0 87 d5 38 f4 7e f6 02 c0 c8 28 46 ce b4 87 28 40
       -2.37035933302349 12.265051313461655
0000f0 f9 77 20 f9 f4 fc 14 40 b6 cd c8 ac d7 d5 04 c0
       5.2470282484118735 -2.60441527355007
000100 39 8c 7f f7 78 71 2a 40 87 01 ec c9 66 b0 14 40
       13.221626028365892 5.172267107991849
000110 32 e2 e5 ce ee 9e 0d c0 5a 90 b0 9a 20 de 2a 40
       -3.702603927984705 13.433842500737388
000120 3f 97 97 c2 dc 3b 13 40 71 e6 9f 7b 64 d5 0b c0
       4.808459320547455 -3.479195562188402
000130 f4 be 5e 18 ff 63 2b 40 5d 36 26 cc 30 a2 10 40
       13.695305596891082 4.158389272529885
000140 fd ab 60 02 82 82 05 c0 81 61 24 d0 66 d3 2b 40
       -2.6887245355369473 13.912893776360535
000150 ac 16 98 3b c8 f3 18 40 7f c2 2c d6 91 a1 0f c0
       6.238068514974355 -3.9538914425286857
000160 64 98 0b 12 28 f3 2a 40 de 90 f8 2b d1 83 1e 40
       13.47491508857292 7.628727614446886
000170 8b 3d 2b 24 dc 06 0e c0 89 51 1c 34 59 87 29 40
       -3.7533495736785816 12.764352444130752
000180 ea e0 6f 51 ed 9a 1c 40 bf bc 5f ce ac a7 0e c0
       7.1512959217582 -3.8318725703207686
000190 41 04 1f 75 87 93 28 40 a2 93 35 c1 e5 ee 18 40
       12.288142833744248 6.233298319716512
0001a0 3a 1a 35 66 b0 6f 10 c0 ec 41 17 2a d8 f3 27 40
       -4.109071347228161 11.97625857862382
0001b0 81 4d d1 c8 6a 55 13 40 e5 25 79 f6 01 05 11 c0
       4.8334151628254185 -4.2548902999346625
0001c0 f1 52 76 db 4f d9 25 40 ec 0c 72 1c 78 94 1c 40
       10.924437387651297 7.144989437543
0001d0 ac 37 7b e6 98 76 11 c0 ff f7 23 c0 cc 01 26 40
       -4.36581764342365 11.003515247717585
